Backend/data.pth (torch, 27562 bytes, 6 tensors)

l1.weight f4 [8, 494]
-0.27852663 0.13092706 0.081689276 0.39167696 0.56571543 -0.043615006 0.19518726 0.08734084
0.685169 -0.0585947 0.65162086 0.31451067 0.9016252 0.03378852 0.13899514 0.76657975
0.19328745 0.21793434 0.53150725 0.69133085 0.245871 0.39131835 0.3718404 0.29196876
0.06998346 0.10926737 0.13031639 0.085284784 0.13239472 0.08267582 0.11078569 0.079979286
0.14558694 0.2664818 0.42002818 0.18979275 0.16667677 0.03671938 0.06324994 0.034941446
0.13879079 0.765563 0.25758517 0.58531 0.5862153 1.0459098 0.4918631 0.9499405
0.4640623 0.5156468 0.9956562 0.95785743 0.25083476 0.10155996 0.5169403 -0.0856831
0.20359705 -0.046838112 0.050097514 0.7036333 0.10785532 0.044197373 0.04538273 0.17173909
0.09515608 0.10762026 0.97674435 0.032221485 0.1979462 0.7578933 0.0069249202 0.8098734
0.005607184 -0.017014945 0.23237908 0.15432802 0.09934187 0.07371204 0.10141949 0.085816845
0.28109577 0.20988172 0.83908135 0.40216714 0.22389777 0.44094202 0.20111479 0.351482
0.2851903 0.24205215 0.40388274 0.30974805 0.23280351 0.23780532 0.41243267 0.2143763
0.72499925 0.3653625 0.5318017 0.4744221 0.21538304 0.7409292 0.4902645 0.46348754
0.6269218 0.3528871 0.055768806 0.5027068 0.40018943 0.48743868 0.0992371 0.18399629
0.37577233 0.54351467 0.38488573 0.3620535 0.34140664 0.69937205 0.39469385 0.4084519
0.42894343 0.08397816 0.22147514 0.07078621 -0.039519165 0.3266375 0.17405938 0.1112993
0.27760106 1.0211499 0.63441783 0.8633324 1.3613868 0.8700008 0.36746553 0.5352932
0.32575434 0.47070074 0.48820546 0.33793917 0.46430153 0.41195276 0.36260313 0.19142501
0.043149713 0.19740693 -0.018944254 0.006861617 0.17687547 0.086901195 0.19975929 0.39766172
0.1313965 0.24181657 0.15149231 0.028092178 0.22108608 0.23209845 -0.05049612 0.28793004
0.2479415 0.029879138 0.2350615 -0.017341776 0.24658577 0.28515524 0.3280515 0.1490642
0.20261587 0.042892296 -0.0018650439 0.36502665 0.12761171 0.19445334 0.2032505 0.009541061
3.619033 0.5604696 1.6674768 0.6293352 0.56740034 0.041965533 -0.03538949 1.0442383
0.99856675 2.5689678 -1.0753753 0.9260711 0.5376329 -0.7771087 -0.46229452 0.078266785
0.52883106 1.1155407 -0.01013006 0.075038314 -0.19018854 -0.043242134 1.4387574 -0.35090107
3.448569 2.0087056 1.1604714 2.9068193 1.3832104 0.6138093 0.19966422 0.12114709
2.200195 0.30766207 0.026672618 0.24528345 1.903918 0.7430682 1.1691906 0.41038147
0.088005856 0.1752708 0.4892118 -0.8215651 1.079443 -0.08567693 0.19341736 0.20992137
0.28571418 0.2893279 0.14795087 0.61625975 0.17803228 0.553951 0.5870135 0.6763227
0.7373176 0.7224432 0.68713224 1.0058793 0.6363873 0.3829358 0.7773166 0.63822645
0.6963232 0.6143358 0.9645433 0.44643328 0.365303 0.6799088 0.73205227 0.5424304
0.6453125 0.31739473 0.06403373 0.20838599 0.15590483 0.2651713 0.15771566 0.12746704
00000000: 0b9b 8ebe be11 063e b54c a73d e289 c83e
00000010: bad2 103f a6a5 32bd 2bdf 473e c1df b23d
00000020: 3c67 2f3f ff00 70bd a0d0 263f 8b07 a13e
00000030: e9d0 663f d565 0a3d be54 0e3e 923e 443f
00000040: 25ed 453e 2e2a 5f3e dc10 083f 0ffb 303f
00000050: 9cc5 7b3e e15a c83e dd61 be3e ee7c 953e
00000060: 7d53 8f3d 92c7 df3d a971 053e caa9 ae3d
00000070: 7b92 073e f151 a93d 9ce3 e23d 2ecc a33d
00000080: be14 153e 4d70 883e ef0d d73e 0859 423e
00000090: 51ad 2a3e 1067 163d 2f89 813d c31e 0f3d
000000a0: 2c1f 0e3e f0fb 433f 34e2 833e e0d6 153f
000000b0: 3512 163f 5fe0 853f 7bd5 fb3e 4d2f 733f
000000c0: 9399 ed3e 6e01 043f 53e3 7e3f 2536 753f
000000d0: 6a6d 803e abfe cf3d 3356 043f 9f7a afbd
000000e0: bf7b 503e 52d9 3fbd 0d33 4d3d 5021 343f
000000f0: 40e3 dc3d 4e08 353d 3ee3 393d 5fdc 2f3e
00000100: 31e1 c23d 0368 dc3d eb0b 7a3f adfa 033d
00000110: 69b2 4a3e 4c05 423f 71ea e23b dd53 4f3f
00000120: 78bc b73b ed62 8bbc c8f4 6d3e 2a08 1e3e
00000130: c073 cb3d 57f6 963d 06b5 cf3d bec0 af3d
00000140: c9eb 8f3e 3ceb 563e 09ce 563f dae8 cd3e
00000150: 7545 653e 27c3 e13e 09f1 4d3e 73f5 b33e
00000160: 7704 923e 85dc 773e b8c9 ce3e 4c97 9e3e
00000170: 0b64 6e3e 3d83 733e 602a d33e 7685 5b3e
00000180: 8d99 393f cb10 bb3e 2824 083f 74e7 f23e
00000190: 5f8d 5c3e 89ad 3d3f f303 fb3e 3d4e ed3e
000001a0: f27d 203f 9ead b43e d56d 643d 65b1 003f
000001b0: a1e5 cc3e 9091 f93e d23c cb3d 8669 3c3e
000001c0: 3b65 c03e c723 0b3f be0f c53e 145f b93e
000001d0: dacc ae3e 0c0a 333f 5015 ca3e 9c20 d13e
000001e0: 799e db3e befc ab3d 61ca 623e 5cf8 903d
000001f0: d9de 21bd 083d a73e 9f3c 323e e3f0 e33d
00000200: ba21 8e3e 0ab5 823f 3569 223f 5a03 5d3f
00000210: ec41 ae3f 5fb8 5e3f 7124 bc3e fa08 093f
00000220: 46c9 a63e b0ff f03e 11f6 f93e 5d06 ad3e
00000230: eeb8 ed3e 79eb d23e 1ea7 b93e eb04 443e
00000240: c1bd 303d 0b25 4a3e fb30 9bbc 6ad7 e03b
00000250: d81e 353e 41f9 b13d b38d 4c3e 519a cb3e
00000260: ce8c 063e c39e 773e cd20 1b3e 9121 e63c
00000270: 6464 623e 37ab 6d3e 05d5 4ebd 916b 933e
00000280: 60e4 7d3e 18c5 f43c f6b3 703e 5710 8ebc
00000290: fb80 7c3e deff 913e 5ef6 a73e 49a4 183e
000002a0: 897a 4f3e d5af 2f3d 7d74 f4ba c6e4 ba3e
000002b0: a5ac 023e c71e 473e e620 503e 1c52 1c3c
000002c0: 3d9e 6740 f07a 0f3f e16f d53f 1d1c 213f
000002d0: 2641 113f 0de4 2b3d 92f4 10bd 9aa9 853f
000002e0: 12a2 7f3f f869 2440 e6a5 89bf ff12 6d3f
000002f0: 4fa2 093f 99f0 46bf deb1 ecbe 564a a03d
00000300: 7961 073f 0aca 8e3f 8df8 25bc b0ad 993d
00000310: c9c0 42be aa1e 31bd 3429 b83f 4ea9 b3be
00000320: 5bb5 5c40 a28e 0040 548a 943f 5409 3a40
00000330: 0a0d b13f 9b22 1d3f c774 4c3e f71b f83d
00000340: ffcf 0c40 e285 9d3e 8980 da3c 962b 7b3e
00000350: 96b3 f33f b839 3e3f 0aa8 953f 851d d23e
00000360: 6a3c b43d 307a 333e f879 fa3e 1752 52bf
00000370: 302b 8a3f 6377 afbd 330f 463e a1f5 563e
00000380: 2149 923e c922 943e 6f80 173e 33c3 1d3f
00000390: 184e 363e bccf 0d3f 8446 163f 7c23 2d3f
000003a0: d9c0 3c3f 0af2 383f e6e7 2f3f a7c0 803f
000003b0: 47ea 223f 2910 c43e 38fe 463f cf62 233f
000003c0: 3d42 323f 1c45 1d3f 4fec 763f e792 e43e
000003d0: ff08 bb3e 810e 2e3f c767 3b3f b8dc 0a3f
000003e0: 3333 253f 9081 a23e 1e24 833d 2363 553e
000003f0: 84a5 1f3e 88c4 873e 3780 213e b886 023e

l1.bias f4 [8]
6.4078197 3.8886447 6.2301383 5.7790565 5.4661584 5.622806 5.752749 4.570338
00000000: dc0c cd40 8edf 7840 4b5d c740 08ee b840
00000010: c5ea ae40 07ee b340 8516 b840 3540 9240

l2.weight f4 [8, 8]
1.5971807 0.36203155 2.7269611 0.73043287 3.7188382 -0.62180126 2.7823744 3.3683994
3.6017506 1.7463267 4.4239674 2.346986 -0.3435355 3.1974924 3.4120498 2.4877017
4.1848993 1.5093193 2.8142278 -0.015260989 3.9782152 2.6701145 1.4487474 2.037729
4.5777392 0.7465665 4.327184 5.878757 3.960066 4.965125 2.7299168 1.5007758
0.95111406 1.0777632 1.7565014 4.930581 2.2786212 2.032362 4.9390316 2.9775014
1.5946981 4.4188604 5.4450684 2.893148 3.785186 3.8308814 1.5113572 4.094217
3.20536 1.0236158 -0.40247717 0.8703082 1.4037178 3.2480404 1.9013515 3.3853123
3.4402897 3.6594582 0.39192533 2.1506104 2.0973322 0.6518499 3.2630668 0.099434726
00000000: 6b70 cc3f 335c b93e 8886 2e40 a6fd 3a3f
00000010: 7201 6e40 5e2e 1fbf 6c12 3240 db93 5740
00000020: 1583 6640 a287 df3f 2491 8d40 0535 1640
00000030: e3e3 afbe b7a3 4c40 065f 5a40 8136 1f40
00000040: b2ea 8540 6031 c13f 4f1c 3440 3a09 7abc
00000050: 149b 7e40 28e3 2a40 8e70 b93f 276a 0240
00000060: d77c 9240 fb1e 3f3f 4b78 8a40 c71e bc40
00000070: b971 7d40 4ee2 9e40 f5b6 2e40 6c19 c03f
00000080: 367c 733f 25f4 893f 0ad5 e03f 52c7 9d40
00000090: eed4 1140 3812 0240 8c0c 9e40 628f 3e40
000000a0: 111f cc3f 4e67 8d40 003e ae40 5629 3940
000000b0: 7d40 7240 292d 7540 2774 c13f d303 8340
000000c0: 9e24 4d40 d805 833f 7d11 cebe 85cc 5e3f
000000d0: 06ad b33f e5df 4f40 7c5f f33f f5a8 5840
000000e0: b52d 5c40 9034 6a40 70aa c83e 9aa3 0940
000000f0: b13a 0640 a3df 263f 16d6 5040 6fa4 cb3d

l2.bias f4 [8]
0.41324517 1.3919239 0.8890916 1.5229108 0.56054425 1.0247012 -0.29870343 1.8805158
00000000: df94 d33e 902a b23f 829b 633f beee c23f
00000010: d47f 0f3f 6929 833f a8ef 98be beb4 f03f

l3.weight f4 [20, 8]
-1.0189527 -0.6840253 -1.2757468 -4.15897 -2.2761326 -0.7841455 -1.0703582 -3.4387262
-2.0950837 -1.7838565 -2.8455834 -1.9617696 -0.91575015 -2.7486877 -0.5511606 -1.9589651
-3.2322285 -0.7172652 -2.863985 -1.926365 -1.361997 -1.9662491 -3.7467272 -0.2110397
-2.7847743 -3.4651582 -0.8186569 -1.6513178 -1.541686 -2.2745214 -0.57512057 -1.9588981
-1.9799854 -1.6946439 -0.9815158 -1.1925002 -4.280014 -1.8143854 -2.9649043 -0.74916035
-0.6041825 -0.86344296 -2.069098 -4.984284 -1.3482883 -1.6008075 -1.0397952 -0.79077595
-3.6148942 -0.95360595 -2.3171048 -2.5859277 -1.3746685 -1.3552846 -0.7053109 -2.7734542
-0.5261877 -2.3187685 -1.1358699 -2.8260922 -1.6752367 -2.4516795 -0.34822032 -2.811208
-1.8448805 -3.1801255 -2.9413755 -3.1038003 -1.0917766 -1.2211738 -0.005506537 -0.8874598
-2.6906755 -1.1784405 -3.0556607 -4.219682 -0.28111035 -1.8585463 -0.66864717 0.0031236375
-1.6767607 -2.4584186 -0.9793891 -1.9917259 -2.461359 -1.3570825 -0.7368848 -3.8600633
-0.54937625 -3.1767068 -2.5627763 -2.3956337 -0.70017856 -1.4624664 -1.1168503 -3.0882032
-2.412078 -0.4287714 -1.251505 -1.6437445 -1.8426992 -4.8552656 -1.6088473 -0.29935402
-1.7951913 -0.63754797 -1.1621228 -2.029408 -3.6821797 -2.6796787 -0.2051756 -2.458319
-0.80812544 -2.9487696 -1.8535293 -1.8773867 -0.3832665 -3.9242656 -2.0514853 -0.39959022
-0.8565869 -3.2101247 -0.25966665 -1.5098523 -3.3525708 -3.56917 -0.76149124 -0.35929695
-0.82056177 -2.4423976 -1.1468986 -2.874675 -1.6020592 -2.7226112 -1.5476558 -0.6751758
-1.5569175 -0.889402 -1.3182257 -3.6738272 -2.6731918 -2.9414425 -0.2528938 0.1501815
-0.58176637 -1.26836 -1.8382038 -1.9718204 -1.7557466 -1.9766275 -3.7627413 -2.5648608
-0.5340373 -2.9771142 -0.6527495 -2.8556566 -2.822187 -0.8177945 -3.2668197 -1.085808
00000000: 0b6d 82bf 481c 2fbf ac4b a3bf 4816 85c0
00000010: 28ac 11c0 c2bd 48bf 7f01 89bf 1714 5cc0
00000020: da15 06c0 6955 e4bf 0a1e 36c0 441b fbbf
00000030: 9a6e 6abf 80ea 2fc0 dc18 0dbf 5ebf fabf
00000040: d5dc 4ec0 b19e 37bf 884b 37c0 2193 f6bf
00000050: eb55 aebf 0dae fbbf 61ca 6fc0 cb1a 58be
00000060: be39 32c0 27c5 5dc0 8093 51bf 625e d3bf
00000070: f855 c5bf c291 11c0 1a3b 13bf 2cbd fabf
00000080: 2970 fdbf 17ea d8bf 9f44 7bbf d9a3 98bf
00000090: e0f5 88c0 c83d e8bf fec0 3dc0 f9c8 3fbf
000000a0: b4ab 1abf 990a 5dbf 1a6c 04c0 417f 9fc0
000000b0: b694 acbf 43e7 ccbf 0218 85bf 4b70 4abf
000000c0: 6d5a 67c0 851f 74bf 724b 14c0 d77f 25c0
000000d0: 23f5 afbf f779 adbf 418f 34bf 4680 31c0
000000e0: 3db4 06bf b466 14c0 2f64 91bf b2de 34c0
000000f0: 286e d6bf 51e8 1cc0 ef49 b2be d5ea 33c0
00000100: 0b25 ecbf 2d87 4bc0 7f3f 3cc0 aaa4 46c0
00000110: 56bf 8bbf 6c4f 9cbf 2e70 b4bb 9130 63bf
00000120: 0734 2cc0 23d7 96bf f28f 43c0 a307 87c0
00000130: b2ed 8fbe d8e4 edbf 762c 2bbf f1b5 4c3b
00000140: 18a0 d6bf bb56 1dc0 3eb9 7abf e0f0 febf
00000150: e886 1dc0 e1b4 adbf 7ba4 3cbf 470b 77c0
00000160: eca3 0cbf 2a4f 4bc0 8704 24c0 1052 19c0
00000170: e73e 33bf 1932 bbbf f3f4 8ebf 1fa5 45c0
00000180: 7c5f 1ac0 ed87 dbbe 5131 a0bf 3866 d2bf
00000190: 91dd ebbf 565e 9bc0 b5ee cdbf ee44 99be
000001a0: d4c8 e5bf 5836 23bf 71c0 94bf d2e1 01c0
000001b0: d5a8 6bc0 db7f 2bc0 8d19 52be 1955 1dc0
000001c0: 4fe1 4ebf a4b8 3cc0 7340 edbf 354e f0bf
000001d0: 823b c4be 2b27 7bc0 894b 03c0 1797 ccbe
000001e0: 4749 5bbf af72 4dc0 07f3 84be d742 c1bf
000001f0: 8590 56c0 486d 64c0 17f1 42bf c5f5 b7be
00000200: 5610 52bf 3e50 1cc0 93cd 92bf adfa 37c0
00000210: 4710 cdbf 433f 2ec0 9619 c6bf 52d8 2cbf
00000220: 1349 c7bf d9af 63bf 9fbb a8bf fc1f 6bc0
00000230: 9315 2bc0 9840 3cc0 4c7b 81be 2ec9 193e
00000240: a4ee 14bf 9f59 a2bf 434a ebbf 9c64 fcbf
00000250: 4ebc e0bf 2102 fdbf c1d0 70c0 ae26 24c0
00000260: abb6 08bf 0a89 3ec0 971a 27bf 14c3 36c0
00000270: b69e 34c0 fb5a 51bf 9313 51c0 c2fb 8abf

l3.bias f4 [20]
-0.3551034 0.12950611 0.025780248 -1.457083 -0.18049026 -1.362165 -1.2247696 -1.9556911
-1.0036575 -0.6170556 -1.1181439 -0.7920583 -0.05441843 0.17434232 0.32998675 0.13173512
-0.22254212 -0.31523046 -0.39658394 0.46377248
00000000: 1dd0 b5be 409d 043e 1931 d33c b281 babf
00000010: 70d2 38be 6c5b aebf 40c5 9cbf 1654 fabf
00000020: d977 80bf 5bf7 1dbf 571f 8fbf 55c4 4abf
00000030: dce5 5ebd cb86 323e 06f4 a83e 92e5 063e
00000040: 15e2 63be e365 a1be 0d0d cbbe 9673 ed3e
